transformer_model.pth (torch, 821489 bytes, 53 tensors)

embedding.weight f4 [2, 64]
00000000: 3da6 61bf 1b1e 91bf a2d2 af3f 1764 cd3e
00000010: 4979 963f 5971 033f 109c 97be 4a02 a0bf
00000020: 089d 203f b97f 073e 2efe c8be 2729 f0bf
00000030: fad0 f23e a0a0 9fbf dbde d5bf 0776 6abf
00000040: 653e 673f 9f16 4abf f19e ab3d 8b3e b93f
00000050: 2321 513c 0d7a b4bf 46cc 8f3e 17f0 5c3f
00000060: 2c6b e43e 84d6 803f bba5 48bf 1676 953f
00000070: 099a c9bf 952e 92be e06e bdbf 483d 363f
00000080: a577 453e a959 a2bf b719 4e3d d2e8 2c3f
00000090: c71f da3f dd8d 6abf cbe9 a03f f6a0 a9bf
000000a0: 9090 8b3e 3b73 b13f edd2 02be 2fb6 7b3f
000000b0: b794 0ebf 6a00 143e b5a7 0a3e 5cb0 87bd
000000c0: 5d08 263e f713 123f 24c8 e23e 1902 4d3e
000000d0: 0a8c bb3f 19d4 36be 190f 9c3f 6e64 0dbf
000000e0: 8253 043f aed1 ce3f dcfb a23e f6a8 a6bf
000000f0: 9528 3f3f 3efc 63bf b2b7 b73e 1e27 213e
00000100: 64f6 b93e 4824 5c3f 8f8d e93d 0157 7fbc
00000110: 7e29 2c3f 6f37 1f3f aac6 493e 80b4 bd3f
00000120: e9c4 a13e c501 f73d a760 073f a9fc aebe
00000130: 02b2 293a 8513 9abf 282e 933f 1d22 1dbf
00000140: 4c49 cdbe eb8f f2bf ec37 67bf eb97 21c0
00000150: 619c 993f ae37 673f bca6 19c0 919a f6bd
00000160: af5c 8ebe a192 85bf 7879 0fbd 10af 293f
00000170: 6f43 993f bbee dc3d d2c8 823f 5610 08bf
00000180: a417 4fbf 7007 cdbf 1002 d33f 72a9 613e
00000190: 07e4 e0bf 8478 dfbd fe2a 903f a36f c53e
000001a0: 5b76 85bf 9728 753d e10e 553c eb14 e03f
000001b0: f6fd 4f3f 7cd2 093f 6380 ac3e a9ab 123f
000001c0: c72c 20bd 69e2 7bbf 50c5 213f 97bc 063f
000001d0: 9fb1 f3be 9219 743f 95dc b33e 86d6 a9be
000001e0: 941d 6c3e 922f cd3f 7f02 933e 6bc7 f3be
000001f0: 323c adbf 4563 57be e907 72bf f017 6d3e
-0.88144284 -1.1337312 1.3736155 0.40115425 1.1755763 0.5134483 -0.29611254 -1.2500699
0.6273961 0.13232316 -0.39256424 -1.8762559 0.4742506 -1.2470894 -1.6708635 -0.91586345
0.9032958 -0.7894077 0.08379925 1.4472212 0.012764248 -1.4099747 0.28085536 0.8630385
0.44613016 1.0065465 -0.78377885 1.1676662 -1.5750133 -0.28551164 -1.4799461 0.7118726
0.19283922 -1.2683612 0.050317492 0.67542756 1.7040948 -0.91622716 1.2571348 -1.3252246
0.2725873 1.386329 -0.12775774 0.98324865 -0.5569567 0.14453283 0.13540538 -0.06625435
0.16214128 0.57061714 0.4429332 0.20020331 1.4652112 -0.17854346 1.2192107 -0.5523137
0.5168992 1.6157739 0.31832778 -1.3020313 0.746713 -0.89056766 0.35882336 0.15737578
0.36320794 0.8599286 0.11403953 -0.015584708 0.6725081 0.6219396 0.1970469 1.4820709
0.31595543 0.120608844 0.52881855 -0.3417714 0.00064733636 -1.2037207 1.1498461 -0.6138018
-0.40094984 -1.895017 -0.90319705 -2.5248973 1.2000848 0.90319335 -2.4008017 -0.120412
-0.27805087 -1.0435373 -0.03502795 0.6628275 1.1973704 0.10787722 1.0217535 -0.53149927
-0.8089545 -1.6017895 1.6485004 0.22037295 -1.7569588 -0.109116584 1.126312 0.38561735
-1.0426744 0.059853163 0.013004036 1.7506384 0.8124689 0.538368 0.336917 0.5729318
-0.039105203 -0.9839235 0.631917 0.52631515 -0.47596452 0.9535152 0.35129228 -0.3317148
0.23058158 1.6030142 0.28712842 -0.4761308 -1.3533995 -0.21033962 -0.9454332 0.23153663

transformer_blocks.0.attention.in_proj_weight f4 [192, 64]
00000000: d314 9c3d f5f7 0a3c cb48 b73d 7b38 8f3d
00000010: c06c e73b 9deb 15be 3b3a ebba 79bd f4bd
00000020: b04d 1c3c 25f2 dabd e320 8cbc 0e47 c53c
00000030: b5cd db3d 023f 3d3d 7c03 fabd 26dd 7d3d
00000040: 7a5b a5bb 9ba1 a5bd 2365 cebd 59d7 4d3d
00000050: df1a f83d 33b7 103e b19e 06be 98ca d7bd
00000060: b13c c2bd b756 933d a949 063e dcb9 293c
00000070: 4e38 df3d a962 223d f993 b0ba ffaf 863c
00000080: 9ada 03bd 61e6 eb3d 0382 e13d 2291 db3b
00000090: 12c3 ef3b c0c4 0fbe cdc0 d3bc ad66 b9bd
000000a0: bb2f ea3d 45f8 953c 1357 c0bc fae0 38bd
000000b0: 86bd ba3b b20c e0bd 4c30 1dbd 60f5 123e
000000c0: e60d 0f3d 56ee e33d 2368 13bd e326 db3b
000000d0: 8c25 dcbd d0bd 3f3d 9708 98bc aa22 f23d
000000e0: dae7 053e 38ce b23d e698 c83d 1caf e03d
000000f0: 2851 9c3d 3b71 00be 9942 d13d 88fa 0d3e
00000100: 745d 4d3d 1d3b be3d b223 863d 9199 aebd
00000110: de7e b9bc 8a2e f3bd 6e75 debd bf98 2e3e
00000120: 8b0a bd3d 50cc 0d3d 4dd1 1b3e 8b4a 873d
00000130: 1810 9c3c c1ad cfbd a2f7 cdbd b9ce 93bd
00000140: 3c4a 0ebe b7b3 d83c affb 12be f5dd d0bd
00000150: c8df 20bd 162e b83c ee3a 13be 060f 23be
00000160: a39a 1b3b 2a6d c6bd 6c64 febd ddb1 6bbd
00000170: f16b 873c 1853 73bd 0fa7 c13c 01cd 04bd
00000180: 73ba f73c e9b9 433d 6cd4 2c3d e873 cfbd
00000190: 3734 e2bd b85d 09bc ed4e 9fbd e7db 1b3e
000001a0: cdda 82bd 0f44 a13d 7d5e 8d3d 0cfd 573a
000001b0: 8d76 7bbd 8dda e5bd 340a fb3d e9f0 7bbc
000001c0: 45cc 1fbd e5be f1bd 6ee7 db3d 61bd ecbd
000001d0: 0ffb 9e3d c80f 043e 08b4 febd e142 89bd
000001e0: 177d 0ebe 7925 383d fe9a 11be 5882 f73d
000001f0: b132 df3c 679a 20bd e956 0cbe bbac d83d
00000200: 1dea 983d 3c75 743d df40 10be 3bff 7cbb
00000210: b161 aabc bc4d edbd 1e11 8cbd bc4d f83d
00000220: 6d78 f23d 7ce2 6d3d 3a31 183e 626d f1bc
00000230: 9d62 493d b095 07be 639a cbbd 69a0 133d
00000240: fc1e 12be 59a5 06be 528b d83d 3c22 10bb
00000250: b5db 3e3b b9b8 3ebd b926 213d 206c 0a38
00000260: 9059 623d 856a 98bc e1d0 b03d 4ea0 823d
00000270: 8890 a9bd 0e03 13be 3dbe 9bbd 3efe ea3b
00000280: 77b7 9cbd f496 65bc f0ff ecbd 5f17 42bd
00000290: aab9 d23d 4e26 8fbd 5505 07be e757 02be
000002a0: cc58 cb3d 70e1 fdbd c76a d6bd 2b5d a13d
000002b0: 8b7b febd 26aa 963d 4d68 8e3d a8f8 d1bd
000002c0: 6422 f9bd d27d 023d e37a d5bd cd22 afbd
000002d0: a7c6 1fbe 34d8 2b3e 96e3 d8bd 9173 993d
000002e0: a0e2 923d b007 80bd b9c0 11bd 5615 0cbe
000002f0: f57e 09be ac12 18be 703f 593d 2335 8ebd
00000300: a35e 033e 7632 58bd 2b07 ea3d a03e 253c
00000310: f0f4 c3bc 0b6e 6fba ad74 263e 9453 e23d
00000320: 4eaf 9e3b 3509 d1bd b028 133e 8883 e6bd
00000330: 405b c93d bd4e 683c 3452 80bd 0a3f 343d
00000340: e73b b1bd 49db b6bd 14a2 103e 94c5 b43c
00000350: 604d 1fbe 3e2d b63d 9b30 843d 1923 3c3d
00000360: e8e1 823d c30e 133b cb14 bdbd d1bb 11bd
00000370: 5c00 56bd 81a9 f53d 9051 e8bd b78c 1cbd
00000380: 8302 93ba 018b 9ebd a404 db3c 17b1 b93d
00000390: 79d1 97bd 6503 c8bd 211e 15be 725a 433d
000003a0: 46e4 c9bd 7d88 3b3d 1bb1 743c a3e2 17be
000003b0: 905a 293e 31ad f23d cbba ce3d 8ba4 e1ba
000003c0: c84c 17be 448e 1d3d b5da ad3d e79b 99bc
000003d0: f046 943d 3191 133e 4aa8 bb3c 9b3c 323d
000003e0: d4d8 23be feed 293d 9b8a 99bd fb99 d53d
000003f0: 4a83 43bd ffb3 49bd 6a96 df3d 7189 05be
0.076211594 0.008481969 0.08949431 0.06993195 0.0070625246 -0.1464066 -0.0017946431 -0.119502015
0.0095400065 -0.10690717 -0.017105525 0.024081733 0.10732595 0.046202667 -0.12207696 0.06197848
-0.0050463052 -0.080874644 -0.10077884 0.0502542 0.121145 0.14132385 -0.13146473 -0.105366886
-0.09484232 0.07194274 0.13114037 0.010359254 0.10899411 0.03964487 -0.0013471834 0.016441343
-0.032190897 0.11518551 0.11011126 0.006700651 0.0073169554 -0.14039898 -0.02584877 -0.09052787
0.11434885 0.01830686 -0.02347902 -0.04513643 0.0056988625 -0.109399214 -0.038376138 0.14351416
0.034925364 0.11129443 -0.035987984 0.0066879853 -0.10749349 0.04681188 -0.018558783 0.11823018
0.13076726 0.08730739 0.09794788 0.109708995 0.07632667 -0.12543194 0.102177806 0.13865101
0.050137952 0.09288619 0.06549777 -0.08525384 -0.022643503 -0.11874111 -0.10862242 0.17050456
0.092305265 0.034618676 0.1521656 0.06606015 0.019050643 -0.10140563 -0.10056998 -0.072171636
-0.13895506 0.026452882 -0.14353822 -0.10198585 -0.039275914 0.022482913 -0.14377949 -0.159237
0.0023743294 -0.0968879 -0.12421498 -0.05754267 0.016530963 -0.059405416 0.02363923 -0.03242207
0.030240273 0.04778472 0.04219477 -0.10129529 -0.110451154 -0.008384161 -0.07778726 0.15220605
-0.06389389 0.07874309 0.06902788 0.0008239306 -0.061392356 -0.11223326 0.122578055 -0.015377262
-0.039013166 -0.11803988 0.10737501 -0.11559559 0.077627294 0.12896645 -0.12436682 -0.06702209
-0.13914905 0.04495761 -0.14219281 0.12085408 0.027245851 -0.03920975 -0.13705029 0.10579821
0.074665286 0.059682116 -0.14087246 -0.0038604278 -0.020798536 -0.11587092 -0.06839202 0.12124202
0.11839376 0.05807732 0.14862528 -0.029471103 0.04916631 -0.13240695 -0.09941556 0.03604165
-0.14269632 -0.13149013 0.10573448 -0.0021993062 0.0029122655 -0.046562884 0.03934357 3.3002463e-05
0.055261195 -0.01860548 0.086335905 0.06378232 -0.0827952 -0.14356634 -0.076046444 0.0071714213
-0.07652181 -0.014013041 -0.11572254 -0.04738557 0.10289319 -0.06989728 -0.13185628 -0.12728845
0.09929046 -0.123965144 -0.10469585 0.078790985 -0.12425908 0.07356672 0.069534875 -0.102525055
-0.121647626 0.031858273 -0.104238294 -0.085515596 -0.15603124 0.16781694 -0.105902836 0.07492746
0.071721315 -0.06251466 -0.035584185 -0.13680014 -0.13427337 -0.14850873 0.053039014 -0.06943729
0.1282907 -0.0527825 0.114271484 0.010085732 -0.023920506 -0.0009133524 0.16255446 0.110510975
0.0048426753 -0.10206834 0.1437099 -0.11255556 0.09831858 0.014178929 -0.06265679 0.04400543
-0.086540036 -0.08928544 0.14124328 0.022066869 -0.1555686 0.08895348 0.06454583 0.04593191
0.063907444 0.0022439219 -0.092324816 -0.035579506 -0.052246436 0.11995221 -0.11343682 -0.038220134
-0.0011215959 -0.07741357 0.026735611 0.0906698 -0.074130006 -0.097662725 -0.14562275 0.047693677
-0.09857993 0.045784462 0.014934803 -0.14832549 0.16538453 0.1184944 0.10094222 -0.0017215175
-0.14775383 0.038465753 0.08488981 -0.018751098 0.07240093 0.14410855 0.022907395 0.04351483
-0.16000682 0.041486733 -0.0749714 0.1042976 -0.04773263 -0.049243923 0.10917361 -0.13040711

transformer_blocks.0.attention.in_proj_bias f4 [192]
00000000: 7a82 60bc 7573 3f3c 5da3 593c 3c56 98bc
00000010: 0076 1fbc 830b 5ebc a9a4 f43b 01dd 093b
00000020: 97b4 b83b 298c e2ba ce09 5e3b 368f 963a
00000030: 2c33 53bc 9cf8 9b3c cf51 93b8 1dfc 62ba
00000040: 78ae ee3b 29be 34bc 9111 85bc 759f 31bb
00000050: e6e4 87bb a6af 7d3c a988 a8b9 1326 9f3c
00000060: 7fad 103b 5879 d23c e690 1a3c 4c44 0bbb
00000070: ca30 053c 1bb9 203c 7cee ec3b fcb7 8bba
00000080: 7ce2 c93c 41a3 c6bb b6b6 8cbc af3e bc3c
00000090: 62ee 5bbb a429 c8bb 787b b43b c0d5 50bc
000000a0: fb6b 8f3c 5925 42bb b2b9 ae3c fc66 c2bb
000000b0: d0fb aabc 796d d7bc 5e94 1cbb df32 b53b
000000c0: 36e0 053c 225a 723c a1e1 c1bc f6c3 f2bb
000000d0: 3c62 a43a 2fd3 ca3b 2633 553b f032 273c
000000e0: 2b00 343c d072 77bc a083 ac3b f259 fcbb
000000f0: a569 e9bb 7ff6 a7ba 71cb 833c 16ae 313d
00000100: 997f 0238 82e3 f538 9f8f 1037 44b2 2337
00000110: 3734 ed36 928d 92b7 51dd 0037 06b8 4e36
00000120: 6893 b2b6 2b35 14b6 79f6 0ab6 c9ba 4cb5
00000130: a29a 5136 4fd4 a536 1e1c 81b7 d80b bf36
00000140: a022 aa36 aa0f c837 c96b 25b8 f6c9 00b4
00000150: 0a8e a237 33a2 be36 94c4 50b6 0458 ee37
00000160: 490a 4b39 0822 9cb7 7c01 3337 1004 3cb5
00000170: 201e a236 62f9 0b37 d9fc edb6 1893 88b8
00000180: 07fd 21b7 4610 5037 7cd8 4737 7087 5d37
00000190: 0c38 0638 b8be ab36 f759 af36 a42c dab7
000001a0: fdb4 3cb8 8b5b 0ab7 12ee 39b8 f820 1138
000001b0: 72ae 76b5 bbc3 2a37 3da2 c233 0961 3b37
000001c0: de48 94b6 af28 6237 2eca 6635 dd4a 0b36
000001d0: 0660 aab8 3e8b 7736 e2d4 d8b6 e5e9 1ab7
000001e0: f6b1 b3b7 d7d6 cc38 5ad7 d2b8 301c a7b7
000001f0: 39ee 2236 3a16 0338 af7b 0236 1413 cd36
00000200: 9e49 08bc bee7 ca3c 0fc9 91bc f9b1 88bb
00000210: 6507 943c f917 1a3d f5e1 6fbb dcaa 443c
00000220: 25d6 4fbc 0d30 bbbc 886b d8bb 9351 ab3b
00000230: af80 03bd 842c 653c 84d5 083c 8550 23bc
00000240: 0932 553b c7e3 a0bb fd08 83bc 2598 e3bb
00000250: 5a01 153c 5cb0 d43b a892 883b 48f2 9fbb
00000260: 1bc3 d63a 818b 1d3c 7c2e 1e3c 2d1d fcbb
00000270: 4438 073c eee0 833c fc33 a73c 502c e03b
00000280: 4c53 23bc 21fe 92bc f1c1 073c 2b62 073b
00000290: 607e fcbc 1abe a5bb 1eb0 7c3c 228c b3bc
000002a0: c4c8 ebbc 31d2 b43b c520 e039 edbf 91bb
000002b0: 53aa 0cba 04e5 4e3c 58ad ec3a 0bde 7bbb
000002c0: e441 bebb de5b 8fbc 8b21 153b 055e 89ba
000002d0: 6c2c e0ba 9113 a7bc 5054 a23c 77c9 4cbc
000002e0: 217a a43b 38a2 ad3b 134f 84bb 1e2d a43c
000002f0: 2aa4 7ebc 6d3c e1bb e347 bebb a777 06bb
-0.013702983 0.011685242 0.013283578 -0.018595807 -0.009732723 -0.013552549 0.007465918 0.002103627
0.0056367624 -0.0017284203 0.0033880356 0.0011486772 -0.012890618 0.019039445 -7.024744e-05 -0.00086587836
0.007283982 -0.011031666 -0.016243728 -0.00271031 -0.00414716 0.015483772 -0.00032145277 0.019427335
0.0022076068 0.025692627 0.009433961 -0.0021250425 0.008129308 0.009809758 0.007230578 -0.001065969
0.024644129 -0.006061942 -0.017176967 0.022979109 -0.0033558835 -0.0061084796 0.0055078827 -0.0127462745
0.017507544 -0.0029624312 0.02132878 -0.005932687 -0.020872027 -0.026297318 -0.0023892145 0.005529746
0.008171132 0.014791997 -0.023667159 -0.0074086143 0.0012541483 0.006189726 0.0032531708 0.010205016
0.010986368 -0.015103057 0.0052647144 -0.007701152 -0.0071231895 -0.001281455 0.01608822 0.043378912
3.111325e-05 0.00011724887 8.616508e-06 9.757063e-06 7.069229e-06 -1.747048e-05 7.680924e-06 3.0803508e-06
-5.3219737e-06 -2.2084666e-06 -2.0707068e-06 -7.626773e-07 3.1233435e-06 4.942099e-06 -1.5391091e-05 5.6936224e-06
5.0704257e-06 2.3849152e-05 -3.943945e-05 -1.1994402e-07 1.9378047e-05 5.6813237e-06 -3.1108839e-06 2.8412796e-05
0.0001936342 -1.8612496e-05 1.0669577e-05 -7.004137e-07 4.8314832e-06 8.34311e-06 -7.0925857e-06 -6.512384e-05
-9.65526e-06 1.2401555e-05 1.19117285e-05 1.32041605e-05 3.2000287e-05 5.1183997e-06 5.2258797e-06 -2.6008413e-05
-4.499125e-05 -8.246755e-06 -4.4329157e-05 3.46014e-05 -9.189599e-07 1.0178362e-05 9.06334e-08 1.1168661e-05
-4.4192266e-06 1.3480122e-05 8.5975887e-07 2.075619e-06 -8.1241174e-05 3.6886918e-06 -6.4620845e-06 -9.233573e-06
-2.1421332e-05 9.767495e-05 -0.00010053693 -1.9921077e-05 2.4278545e-06 3.1253534e-05 1.9443503e-06 6.111697e-06
-0.008318333 0.024768706 -0.017796068 -0.0041716066 0.018069932 0.03762052 -0.0036603187 0.012003627
-0.012685333 -0.02285006 -0.0066046156 0.0052282303 -0.032105144 0.013987664 0.008351687 -0.009967928
0.0032531044 -0.0049099657 -0.015995497 -0.0069456273 0.0090945605 0.0064907502 0.0041678734 -0.004881177
0.001638505 0.00961578 0.009654637 -0.0076939077 0.008253161 0.016098466 0.02041053 0.00684122
-0.00996859 -0.017943444 0.008285985 0.0020657878 -0.030821979 -0.0050580623 0.015422849 -0.021917406
-0.028782256 0.005518221 0.00042749025 -0.004447928 -0.00053659565 0.012627844 0.0018057032 -0.0038431908
-0.0058061946 -0.01749986 0.002275559 -0.001048029 -0.0017103083 -0.020395072 0.019815594 -0.012499205
0.0050194417 0.005298879 -0.0040377467 0.020041045 -0.015542069 -0.0068736584 -0.0058069094 -0.0020518096

transformer_blocks.0.attention.out_proj.weight f4 [64, 64]
00000000: e55e 543c 05f0 063e 07b3 073e ecab db3d
00000010: c542 d4bc d042 88bd 5096 55bd 37ec fe3c
00000020: 8e85 9b3d ae09 903d 1304 8cbd 1147 8cbc
00000030: afb6 80bd ee65 9bbd 8728 ccbc f50a ed3d
00000040: 1cce a13d e8ae 3f3d a1f9 623d 4777 a8bd
00000050: 5677 d2bc 81b2 323d 7682 243d e0a6 8c3d
00000060: a129 83bd 3a60 05be f0cc 043e 7f2c d4bd
00000070: f929 e9bd 61a6 873c 01a4 873d 91d2 ae3d
00000080: f153 1abc 6a8b d1bc 53f3 bcbd b681 8dbd
00000090: a06a 7abd ddc3 5ebd aa57 9d3c b892 87bd
000000a0: ace1 9c3d 0274 f4bd 323a e73c 67f9 aabd
000000b0: 2539 9c3d 155a 75bd 2ec6 adbd a383 a6bc
000000c0: 8670 7d3d e046 6e3d f456 adbd 32d3 eebd
000000d0: 64ab f4bc 0b8a 08bb 7c7e c83b abd8 a33d
000000e0: 17f9 9a3d a2df cebd 2b5a 4d3d bbcb 02bb
000000f0: 2953 a3bd 0ae8 ee3d 9427 1dbb 5af9 b13b
00000100: fc3a c4bb c42c 0d3d e368 053d 9a1f 153e
00000110: 928b 04be 599a 74bd e37e e6bd 9a46 15bd
00000120: dcd7 9a3d e3c5 f9bd dee3 fa3d faf5 bdbc
00000130: fa82 84bc f6b8 24bd e513 113d e207 a93c
00000140: 74ee b1bd 3111 c13d b2ce 923d b825 013e
00000150: 1b2c 1ebd 1f4e fa3d b351 19bd f0f7 9e3d
00000160: ffa8 413c a8ba c23d 0850 2c3d 3958 02be
00000170: 83fd f6bd 28bf 923c 1138 20bd d46a 153d
00000180: f948 46bd ad4a 9e3d 03a5 c4bd 3ffe 90bd
00000190: 63b5 3bbd 0cc0 7abd 1958 a23d 9b18 b0bd
000001a0: 882c ddbd 24c7 eabd 4468 19bd ea29 bd3d
000001b0: 02af 183e ad47 d13b b750 be3b 903a 0d3e
000001c0: 1adc babd bd2d 253c 9a80 f5bc 91e7 29bc
000001d0: 7e4c 83bd 0487 c33d 19e7 073e 0ff0 913d
000001e0: 16a1 d0bc bb9b 843d f91a 65bd 4d2f 583b
000001f0: 90c4 58bd 73c5 e93d 739d 5c3d 9bd9 a8bc
00000200: 0d90 efbd 3c01 c63d d955 c03d c8bb 2dbd
00000210: 0400 c73d e4d2 96bd 6615 bc3d 47e7 9f3d
00000220: 5f5e 25bd 3f50 c8bc ccef 3cbe 12d6 3b3e
00000230: 9a25 543d 36ae cf3d 6b18 f93c fbef fc3c
00000240: 5591 90bd 2e7d 71bd 9e62 6d3d 7ef6 bfbd
00000250: 952b 2ebc dcc6 343d dcce c03d 797d 90bd
00000260: abe5 2a3d 9b51 8dbd ae36 0fbd 9881 973d
00000270: 15a9 adbd df43 b73d 35ac bdbd 4e29 d8bc
00000280: a2f7 553d 9e05 733d c28f e2bd 427b 083d
00000290: 678b 11be 170d c4bc eb75 343e 8f96 c5bc
000002a0: a460 c7bb d557 c3bd 07d9 09bd 3c7e 0a3d
000002b0: 3ca6 f43c 5968 963d 3b9b 3cbd a477 eebd
000002c0: ca6a 27bd 5f71 ab3c 276b 063e fb3f 0d3e
000002d0: 2891 01be 6ae9 febc 2d20 eb3d 5e6a 43bc
000002e0: 0552 aa3d 083a 9fbd b461 913d 77b4 be3d
000002f0: 2271 b13d 9015 a13d 3f15 7f3d 6362 51bd
00000300: 0fb3 ccbc c582 31bd ed82 bb3c 3761 aa3c
00000310: d6af 163d 42b8 a0bd 52ea a0bd 9446 abbc
00000320: a658 bdbd 4342 603b 9ff9 d03c 1f31 bdbc
00000330: 065a 113d caa1 dbbd 3407 043d 7e57 203d
00000340: 75b7 16bd 917a 4dbc 1f88 a63d 5b78 9b3d
00000350: ae32 363c 8453 703d 74ae f53c db93 d3bb
00000360: 2492 833b 67b3 ba3d a390 ab3d d034 b9bd
00000370: ff66 b93d ead7 9c3d 879f b8bc 2232 043e
00000380: 9ebe 423d 2c11 eb3d c507 c73d a4bc 8dbc
00000390: 7dd4 903d cd1b 463d aad4 c93d c05a e43d
000003a0: 924a 843d 9298 1c3d 2cce d13d 0dfe 88bd
000003b0: a60d a3bc 2048 dc3d da30 5fbd dcb9 59bd
000003c0: 7004 e5bd fcd0 8d3d 3d22 9b3d c1cf 82bc
000003d0: 46cb 463c 327c 94bd f184 b0bd f828 683d
000003e0: 64a6 0bbd d8c8 e2bd cf69 b8bd b043 bdbc
000003f0: b11f 013e ab2d 353d 805a ba3d 98e7 74bd
0.012962078 0.13177498 0.13251887 0.10726151 -0.025910744 -0.066533685 -0.052145302 0.031118495
0.07593833 0.07033096 -0.068367146 -0.01712373 -0.06284844 -0.07587801 -0.024921669 0.115743555
0.0790064 0.046797663 0.055413846 -0.08225875 -0.02569167 0.043627266 0.04016348 0.068677664
-0.064044245 -0.13024989 0.12968802 -0.103600495 -0.11384959 0.016558828 0.06623078 0.08536256
-0.009419427 -0.025579173 -0.09226098 -0.06909506 -0.06113684 -0.05438601 0.01920684 -0.06619781
0.07660231 -0.11936189 0.028225992 -0.08348351 0.07628087 -0.059900362 -0.084850654 -0.020326441
0.06187489 0.05817306 -0.084638506 -0.11661376 -0.029866882 -0.0020834233 0.0061185937 0.080003105
0.07567041 -0.10101248 0.05013482 -0.0019957859 -0.07974846 0.11665352 -0.002397989 0.0054313364
-0.005988477 0.03446652 0.03257073 0.14562836 -0.12943867 -0.05971751 -0.112546705 -0.036444284
0.07560703 -0.12195947 0.122504935 -0.02318858 -0.016175736 -0.040215455 0.035419364 0.020633642
-0.086880594 0.09427107 0.0716833 0.12612045 -0.03861628 0.12221932 -0.03743143 0.07762134
0.011820077 0.09508258 0.04206851 -0.12728967 -0.12060072 0.017913416 -0.03911597 0.036478832
-0.048409436 0.07729087 -0.09601786 -0.070797436 -0.04582728 -0.061218306 0.079269595 -0.08598443
-0.10799509 -0.11463764 -0.03745295 0.0923651 0.1491051 0.0063867182 0.005807962 0.13791871
-0.09124012 0.010081706 -0.029968549 -0.010370151 -0.06411074 0.095472366 0.1327175 0.07125866
-0.025467437 0.06475016 -0.055933926 0.0032987178 -0.05292183 0.114146136 0.053861093 -0.020611575
-0.116973974 0.09668204 0.09391374 -0.04241541 0.097168 -0.07364443 0.09183769 0.078077845
-0.040373202 -0.024452327 -0.1845085 0.1834338 0.051793672 0.1014065 0.030407151 0.03087615
-0.0705897 -0.05895727 0.057955377 -0.093731865 -0.010630508 0.04413496 0.09414455 -0.07055182
0.041722935 -0.06900331 -0.034964256 0.07397765 -0.084795155 0.08948492 -0.092613615 -0.026386883
0.052238114 0.05933153 -0.11062576 0.033320673 -0.14213334 -0.023932023 0.17623107 -0.024119643
-0.0060845185 -0.09538237 -0.03365424 0.033811793 0.029864423 0.073441215 -0.046046477 -0.116439134
-0.040873326 0.020928083 0.13126813 0.13793938 -0.12653029 -0.03111716 0.114807464 -0.011927215
0.08316425 -0.077747405 0.070987135 0.09311765 0.086641565 0.07865441 0.06227612 -0.05111922
-0.024987726 -0.043337602 0.022889579 0.020798309 0.036788784 -0.078476444 -0.07857193 -0.020907678
-0.09245424 0.0034219183 0.025509654 -0.023094712 0.035486244 -0.10724218 0.032233432 0.03914594
-0.036796052 -0.012541429 0.08131432 0.07591315 0.011120481 0.058673397 0.029990412 -0.0064568347
0.004015224 0.091162495 0.08377197 -0.09043276 0.09052848 0.0765837 -0.022537006 0.12909749
0.047545068 0.11477885 0.09718279 -0.017301865 0.07071779 0.048366357 0.098550156 0.11150122
0.06459536 0.03823144 0.10244402 -0.06689081 -0.019903969 0.10755944 -0.054489948 -0.053155765
-0.11182487 0.06924626 0.0757489 -0.015968205 0.012133425 -0.07250251 -0.086191066 0.056679696
-0.03409423 -0.11073464 -0.090045564 -0.023103565 0.12609746 0.044233005 0.09099293 -0.059791178

transformer_blocks.0.attention.out_proj.bias f4 [64]
00000000: 63ed 00bb 22bc 1fba 56bf d5bc 38ba 203c
00000010: f40c a7bc f349 11bd 0b60 a73b 299b 713b
00000020: 2cf9 c2bb 466c f9bb d32a d9bb 3c13 9e3c
00000030: 08ec 36bc c353 233d b50a 283b 8d42 f83c
00000040: 047c 5fbc 4136 023d b9dc e53b 2e53 88bc
00000050: c3bd 78bc 2740 043c 1eae b73b 2474 9bbc
00000060: 50e7 d639 ba21 5abb 0d24 dfbb 1ca8 bfbc
00000070: a6d3 273c cf7f 5a3c b02a 2f3c b8a4 80bb
00000080: e8aa b9bb 843d 073d 7469 8fbc d1d3 59bc
00000090: 89fa 603c 38d0 c83b bd4e a5bc 021f 6d3c
000000a0: 6ef0 9e3b 49c5 ddbc 4477 0dbc cbdf 65bc
000000b0: 22e2 31ba a7c3 413c 0264 613c d5d4 88ba
000000c0: ab1a 47bc a5c0 47bc c3fc d0bb a7ec d0bb
000000d0: 158f debb 34d4 583c 3dbd dbbc 5f40 883c
000000e0: eb66 2fbc 7f55 89bc 51be a1bb 7704 f83b
000000f0: 196f 6d3b dc65 803c 57ba f73b cdfb 693c
-0.0019672744 -0.00060934026 -0.026092213 0.009810023 -0.020391919 -0.035470914 0.0051078848 0.0036866164
-0.0059501138 -0.007611784 -0.0066274195 0.019296281 -0.011164673 0.039874803 0.0025641148 0.030305171
-0.0136404075 0.03179002 0.0070148376 -0.016641226 -0.0151819615 0.008071936 0.005605473 -0.018976279
0.00040989602 -0.0033284263 -0.0068097175 -0.02339559 0.010243332 0.013336136 0.01069133 -0.003925886
-0.0056661256 0.03301765 -0.017506339 -0.01329513 0.013731607 0.0061283372 -0.020179147 0.014472725
0.004850439 -0.027071612 -0.008634392 -0.014030407 -0.00067857106 0.011826432 0.013756754 -0.0010439405
-0.012152354 -0.012191926 -0.006377788 -0.0063758674 -0.006791959 0.013234187 -0.026823634 0.016632257
-0.01070569 -0.0167644 -0.0049360176 0.0075688916 0.003622955 0.01567357 0.0075600552 0.014281225

transformer_blocks.0.feedforward.0.weight f4 [256, 64]
00000000: 0a82 823d af0b a9bc a582 b7bd c24e 05be
00000010: 1443 333d d568 b23d 0556 dbbd 84e9 983d
00000020: 53b5 013d 39cc 0b3e 349f a7bc 9e64 4ebd
00000030: 4aba 2abb a6c6 9a3d 3477 41bd bad6 33bd
00000040: 2b7d ac3d 4083 a1bd a01f 783c 2693 d33d
00000050: 6c20 503c 5c32 053b 874f e13d e0ef d4bc
00000060: cc02 70bd 9a4a b9bd 1f17 ec3c b2a7 5dbd
00000070: 5dc6 e0bc c5e0 14bd 0ce2 87bd e01a 74bc
00000080: 6ffb 15bd ee0e b53d c943 c6bc c6dc 8f3d
00000090: c027 743c a034 a73b fdfd e33d c12c 06bd
000000a0: 1a7f 9fbd d501 89bd d9b3 c3bd c1d1 2abd
000000b0: 1ac2 eebd c680 5ebb 65ae 653d 8820 ae3d
000000c0: 0521 d6bd e3e5 a6bd 3e76 ef3c ab8f d63d
000000d0: c6c1 193d 7a4d abbd cf27 443d 486c d23d
000000e0: de88 a7bd 4d1e d7bd 5d49 813c 429b c8bd
000000f0: 8a82 413d 0d23 e73d 0c1e cdbd 38f3 abbd
00000100: e340 81bd 7f38 e1bd 33f9 4dbe 6807 683b
00000110: f02d bcbd 2d2d 273d a40c 513e f464 08be
00000120: f1b5 14be f258 9d3d 7ac1 41bc a0d9 91bd
00000130: e0c9 303d 3f89 ef3c da4b 23bd cff8 363e
00000140: 4e85 073d d31a 283d 9bee 923d 22fa 8dbd
00000150: f7ba ca3d ea96 fb3d 67e1 bebd 2c59 e6bd
00000160: 3e5c c93d d3c5 9abc e3a0 b53d 2dcf 19be
00000170: 0097 893c 4ef0 2f3c a136 873d 02b0 393d
00000180: baec 7b3c 80c8 963d 3a39 f4bd 84dd 353d
00000190: 9bee 91bd 649b 8e3d a7a3 c4bd 620f 81bd
000001a0: 5ac8 db3d d4dc 01be 6302 823d e0fc 5c3d
000001b0: 8df8 9c3d 9bff f53d 2ef1 e3bd b768 46bd
000001c0: bc43 073c f809 5ebd df1e 9fbc b1a9 fabd
000001d0: d657 b9bc 279a b6bc a7a4 fcbd 8f5e 2cbb
000001e0: ffcd f53d cce9 a5bb 701b 2e3d fb12 893d
000001f0: 8929 043d e172 5abd 38e0 4cbd 4724 ebbc
00000200: 579f d73a 94ca e83d ab44 aebd 0bc6 7c3d
00000210: 4507 ea3c dba3 d0bd 651c 573c a984 443c
00000220: 41eb 853d 648e d9bd 3251 6cbc 2be0 5abd
00000230: c053 b93d 0561 963d c1bd 1abd 4cf5 d53d
00000240: 894f 923b 7205 d43d 5118 83ba d936 e93d
00000250: 1477 cebd 0bfe 983d 4cd1 6f3d e487 04be
00000260: 845e 08bd 5654 1b3c 587b f33c b5f7 3ebd
00000270: 4492 953d e418 11bd 3d14 a63d 295d 143d
00000280: bec6 b73d 6dce 983c 42fa ea3d cfcc 3fbc
00000290: f223 743d d426 633d e8fd 04be 395d 143e
000002a0: d68c 883d c08b 703d b7e0 b43c eabe 583b
000002b0: 11b1 103e a962 fcbd 6e0f 91bd 8bfa cebd
000002c0: 75bd dbbc e9e2 913d 063d cbbd c378 05bc
000002d0: 00f7 523d d972 6dbd a3e4 913d ad74 7fbd
000002e0: bb50 dc3d 8eea 8d3d e54f f0bd 7f94 133e
000002f0: 32ce 3f3d 9707 e6bd 1db9 82bd 5968 d4bd
00000300: 9903 8bbd e4c7 abbc 8777 1d3d 6be3 95bd
00000310: 3b60 c1bd c3ad 27bd 6a30 febc bbda f63c
00000320: 1b03 3bbd 55c1 34bd f325 933c ce65 ae3d
00000330: b382 adbb f9f3 f03c 1ef3 423d 09f1 ca3c
00000340: ba7c b73c aa80 f63a 8b6a 843d 7199 d2bd
00000350: 5fe9 06be bad8 d53d 58c3 9e3a 507e 86bc
00000360: fc5d e5bd d4a6 023e 2ca2 063d fedf 9cbc
00000370: 6364 d43d 1ec5 01bd 94cb 7b3b 70aa b5bc
00000380: 67fc 12bd 3fa8 a0bd 8e03 e13b d79d d33d
00000390: 0584 a33d fb16 dfbd 5710 9bbd d409 7cbd
000003a0: e993 9cbd dc4b f9bd 6fe5 d43d 2e95 97bc
000003b0: f5c5 bf3d e393 dc3d 7e69 383d 71a0 01be
000003c0: 8244 2dbd f9cd ac3d 3ed5 aa3d 898b 8abd
000003d0: 0020 b4bd ff4a b3bd 78b3 d73c ec11 073c
000003e0: 4689 00bd dd83 02bd b25e bfbc 0ed7 f13d
000003f0: ac16 4b3b b048 c63d 3a82 0b3d 2bcd 933d
0.06372459 -0.020635454 -0.08960465 -0.13018325 0.043765143 0.087114014 -0.10709766 0.074664146
0.031667065 0.13652124 -0.020461656 -0.050388925 -0.0026050978 0.075574204 -0.04723282 -0.04390595
0.084223114 -0.07886362 0.015144259 0.10330801 0.0127030425 0.0020324206 0.11001497 -0.025993288
-0.058596417 -0.09047432 0.028819619 -0.054115005 -0.027438337 -0.03634717 -0.06634912 -0.014898986
-0.03661674 0.08840738 -0.024202244 0.07024531 0.014902055 0.005102709 0.11132429 -0.032757524
-0.077879146 -0.066898026 -0.095557876 -0.041703943 -0.11658116 -0.0033951267 0.05607452 0.085022986
-0.10455517 -0.08149316 0.029231187 0.10476621 0.037538312 -0.08364387 0.047889527 0.10274559
-0.08180402 -0.10503826 0.015782053 -0.09795238 0.047243632 0.11285982 -0.100154966 -0.08396
-0.06311204 -0.10997104 -0.20114593 0.0035404805 -0.091884494 0.040814567 0.20414978 -0.1331976
-0.1452253 0.076829806 -0.011825914 -0.07121587 0.043161273 0.029240249 -0.03986726 0.1786835
0.033086114 0.041041207 0.07174417 -0.06932475 0.09898942 0.12284644 -0.09320336 -0.11247477
0.09832047 -0.018893158 0.08868577 -0.15020438 0.016795635 0.010738445 0.066022165 0.04533387
0.015376264 0.07362461 -0.119249776 0.044400707 -0.071255885 0.06963232 -0.09601527 -0.06301762
0.107315734 -0.12681895 0.063481115 0.053952098 0.07664595 0.120116435 -0.11129986 -0.048439708
0.008255895 -0.054208726 -0.0194239 -0.12239397 -0.022624891 -0.022290302 -0.123360924 -0.0026301479
0.12002181 -0.005063271 0.042506635 0.06693073 0.032266174 -0.053332213 -0.05001852 -0.028703822
0.0016450685 0.11366764 -0.08509191 0.061712306 0.02856792 -0.10187503 0.013129328 0.011994519
0.06539012 -0.10622862 -0.014423655 -0.05343644 0.09049177 0.07342724 -0.03777862 0.10447177
0.0044650477 0.10352601 -0.0010001754 0.113874145 -0.10081306 0.0747033 0.05854921 -0.12942463
-0.033293262 0.0094805565 0.0297219 -0.04662295 0.073032886 -0.03542413 0.08109329 0.036221657
0.08973454 0.018653119 0.11473514 -0.011706545 0.059604593 0.05545695 -0.12987483 0.14488687
0.06667487 0.058727026 0.022079809 0.0033072778 0.14130045 -0.123235054 -0.07083021 -0.10106381
-0.026823739 0.07123358 -0.09923749 -0.008146468 0.05150509 -0.057970855 0.07123687 -0.06236713
0.107575856 0.069295034 -0.11733989 0.14412116 0.046827503 -0.112319164 -0.06382964 -0.10371465
-0.067877956 -0.020969339 0.03844407 -0.07318767 -0.09442183 -0.040937196 -0.031028945 0.030133596
-0.04565726 -0.04412969 0.017962432 0.085155115 -0.0052951216 0.02941321 0.047595136 0.024773138
0.022398341 0.0018806655 0.06465634 -0.10283173 -0.13174962 0.10441728 0.001211266 -0.016417652
-0.11199567 0.12758952 0.032869503 -0.019149777 0.1037071 -0.031682126 0.0038420903 -0.022175997
-0.03588524 -0.078445904 0.006866879 0.1033284 0.07984165 -0.10893055 -0.07571476 -0.06153281
-0.07645399 -0.12172672 0.103953235 -0.018503752 0.09363929 0.10770395 0.04502248 -0.1265886
-0.042301662 0.08437724 0.08341454 -0.067648955 -0.08795166 -0.08754539 0.026330695 0.008244019
-0.031380914 -0.031864036 -0.023360584 0.118085966 0.0030988855 0.09681833 0.03405974 0.07216867

transformer_blocks.0.feedforward.0.bias f4 [256]
00000000: a261 ab3d c883 073b 6426 a7bd fbc6 7ebd
00000010: 5ba1 16be c01e e83c f09d ddbd 08c0 2bbb
00000020: 58b6 8bbd e52b 36be d1ad 91bd 14dd 16bd
00000030: 5e11 753d 721e 833c 50a4 e0bd adb9 303d
00000040: c81c 70bd 2367 d43b edb0 2fbe 2b5d 873d
00000050: b808 a1bd 3692 1bbe e1d6 06be 82a8 cebd
00000060: 08a6 4d3d 497d 01be 1ef7 8dbd 2616 e3bc
00000070: 6c26 5abd a17a 913d 51c8 e839 2e00 d33d
00000080: e32b c03b 5875 35bd 1821 2bbe 624b 113d
00000090: 7976 febb 8eb6 1bbe 8c0f eebc f728 88bd
000000a0: 1c70 31bd 8757 d1bc e370 913d 62ed 01be
000000b0: e6b8 c6bd 7a39 ec3b ae0b 85bd c58e 8c3b
000000c0: 8eee 4a3d 8043 c23c b982 b6bd f379 0abc
000000d0: 776e 05be d1b6 14bd 43b5 f7bd 4154 05be
000000e0: bb38 203d fea3 5a3a b3f9 0abe 8925 a6bd
000000f0: 6bf6 283d 7c65 1a3d f963 9e3d 6487 9cbd
00000100: 9628 1ebe 0547 403d b8cc 84bd 9d85 23be
00000110: fc06 46bd 8390 99bd b177 3ebd 96f4 82bd
00000120: cbdd 7fbd 792b b6bd c342 75bd e6e8 f1bd
00000130: 329c 26be 7848 93bd 67bb 1cbe 93fd 11be
00000140: 6106 9cbd 0f57 89bd 96d3 24be 5663 243d
00000150: ded6 ccbd d762 c4bd 4510 07be 003c 293d
00000160: 30c6 133d 50ff c8ba d845 183c 878f 37be
00000170: f17d 47bd 3884 c7bd 746d 833c 8898 97bd
00000180: 01c5 85bd 7b9b 8dbc bee7 74bd b8a1 90bc
00000190: 1963 fabd dcf5 e53c e735 89bd 88d1 ed3b
000001a0: 7fb2 c0bd adf7 98bd 8b9a 21be 22e1 c3bd
000001b0: d0b3 52bd a44b eebd 2249 68bc 1df1 22be
000001c0: 3686 28bb 36f3 e6bd 8e06 d6bd 0f71 89bd
000001d0: 33d3 eebd 4622 71bd d7c4 71bc a067 8dbd
000001e0: 7e68 0dbd 896e 6e3d 791b 283d 72e6 97bd
000001f0: f6d4 03bd a15b 803d 09a6 8e3d f582 623d
00000200: b331 c8bd 93f3 9a3d 512e 6bbd 79ed 153d
00000210: 9027 433d ee44 7a3c d934 d63b 3da5 a4bc
00000220: 3703 0bbe 6ccf a03d bb1f 06be 2a4c 133d
00000230: 8a38 803d 4b07 01bc 68cc e2bc ccf7 b8bd
00000240: eedb 09be c466 12be d5e1 9e3d 3bfd 1bbe
00000250: ee23 c43d 6c98 14be 0263 a83d a1c1 b6bc
00000260: 6888 53bd 9bb1 bf3c c469 e5bd a985 e0bd
00000270: c442 68bd 9192 02be 0f59 f13c f771 1b3d
00000280: 084b f6bd 85ea 193d 6ee4 13be 739d 14bd
00000290: 2c21 a7bd 2dfa e9bd daed 9c3d dce4 c6bd
000002a0: 6cb7 623c f512 89bd 096b 8e3d 6559 913d
000002b0: 1fe6 c63b 9c44 9bbc 3d40 09be 3958 2bbc
000002c0: 176a 2dbd 07f6 733d f480 5e3c d433 d2bb
000002d0: 37ba a5bd 4b8b 7dbc 0aa1 ee3c 3c29 e3bc
000002e0: 3c3d e2bd dc30 35bd 7588 16bc aa42 c4bd
000002f0: 72c9 9c3d ea60 aabd 8c6a 8ebd 35e4 f3bd
00000300: d05a 0bbe 2eb7 92bd 9dd2 2cbd 5405 95bd
00000310: e784 8abc 3be7 87bd 870d cbbd 07b8 93bd
00000320: 0354 cfbd 766c 0cbe ffb3 a0bc 81b6 c1bd
00000330: 5d01 01be b839 083c 96c3 01be 251a abbd
00000340: 088a 823d 301e 1dbe 9e21 2bbe 1618 8cbd
00000350: f72f b13c d1b9 e9bd 0fab 9e3d df6d 7b3c
00000360: 05d3 11be db2c b8bd 6800 a23d f439 c3bd
00000370: 0736 d9bc f3b7 84bc b7e4 a4bd ffe4 15be
00000380: 8b86 7ebd b887 cf3d 25d1 ab3d a22b 8dbd
00000390: 8018 a43d 2210 e0bd b9de 01be 0a87 533d
000003a0: f037 d63c 0212 66bd 5eb9 3ebd 5907 f2bd
000003b0: d6cf 1abd 92d1 98bd d89b 0b3d 19aa 19bd
000003c0: fee5 d3bd 6929 633d ccf6 eabd 66de 2d3d
000003d0: b0af 8c3c b1f3 133c 2bce e9bd fee4 fb3c
000003e0: 5a4f 383c cd45 cfbd 917d 99bd 1693 d3bb
000003f0: 35d2 7a3d df2e 8dbd 7bcb a9bd 8055 b4bd
0.08368231 0.0020677913 -0.08161619 -0.06220148 -0.1470999 0.028334975 -0.1082114 -0.002620699
-0.06821889 -0.17790182 -0.07113231 -0.03683193 0.059831016 0.016005728 -0.1096884 0.043145824
-0.058621198 0.0064820214 -0.17157336 0.06609567 -0.07862991 -0.15192494 -0.13167907 -0.10090734
0.050207168 -0.12645449 -0.069318995 -0.027720522 -0.0532593 0.07103468 0.00044399736 0.10302769
0.0058646067 -0.04430136 -0.16711843 0.03547228 -0.007765588 -0.15206358 -0.029060148 -0.066484384
-0.043319806 -0.025554432 0.071016096 -0.1268821 -0.09703235 0.007209 -0.06496368 0.0042894804
0.04954391 0.023713827 -0.08911652 -0.0084519265 -0.1303042 -0.03630716 -0.1209512 -0.13020422
0.039116602 0.0008340477 -0.13571815 -0.08112628 0.041250627 0.03769444 0.07733912 -0.07643011
-0.1544517 0.04694273 -0.064843595 -0.15968938 -0.048346505 -0.074982665 -0.046500865 -0.06394307
-0.062467378 -0.088950105 -0.059878122 -0.11812 -0.16270521 -0.07191557 -0.15305863 -0.14256887
-0.07618404 -0.06706058 -0.16096339 0.040133797 -0.1000192 -0.09589165 -0.131898 0.041316986
0.03607768 -0.0015334878 0.009293996 -0.17925845 -0.04870409 -0.097420156 0.016043402 -0.0740214
-0.06531716 -0.017286053 -0.05979132 -0.017655239 -0.12225933 0.028071336 -0.06699734 0.007257644
-0.094090454 -0.074691154 -0.1578161 -0.09564425 -0.051441014 -0.11635521 -0.0141775925 -0.1591229
-0.0025714762 -0.112768576 -0.10450469 -0.06711017 -0.11661377 -0.058870576 -0.014756403 -0.069045305
-0.03452348 0.058210883 0.041041825 -0.07417001 -0.032185517 0.06267477 0.069652624 0.05530067
-0.097751044 0.07565989 -0.057417218 0.036603425 0.04764515 0.015275223 0.0065370617 -0.020098323
-0.13575445 0.078520626 -0.13098042 0.035961308 0.06260784 -0.007875274 -0.02768536 -0.090316385
-0.13462803 -0.14297014 0.07757918 -0.15233319 0.095771655 -0.1451127 0.08222009 -0.022309126
-0.05164376 0.023400119 -0.11201814 -0.10962994 -0.056704298 -0.12751223 0.029461412 0.037950482
-0.1202603 0.03757717 -0.14442608 -0.036282968 -0.08160624 -0.1142467 0.07662554 -0.0971162
0.0138376765 -0.06693069 0.06954009 0.07097129 0.006069913 -0.018953614 -0.13403411 -0.010458046
-0.042337503 0.0595608 0.0135805495 -0.00641487 -0.08092158 -0.015475105 0.029129524 -0.027729623
-0.11046836 -0.04423605 -0.009187807 -0.09583028 0.0765561 -0.08319266 -0.06953916 -0.119087614
-0.13608861 -0.07163845 -0.042193044 -0.07276407 -0.016909076 -0.066359006 -0.099146895 -0.07212835
-0.10123446 -0.1371325 -0.019617079 -0.09458638 -0.12598176 0.0083145425 -0.12672266 -0.08354596
0.063739836 -0.15343547 -0.16712043 -0.068405315 0.021629317 -0.11412395 0.077474706 0.0153460195
-0.14240654 -0.089929305 0.07910234 -0.09532538 -0.02651502 -0.016200995 -0.080514364 -0.14638136
-0.06214003 0.10133308 0.083895005 -0.06893088 0.080124855 -0.10940577 -0.12682618 0.051642455
0.02614972 -0.056169517 -0.0465635 -0.11817808 -0.037795864 -0.07461847 0.03408417 -0.037515733
-0.10346602 0.055459414 -0.11472854 0.042448424 0.017173618 0.0090302685 -0.114162765 0.03074884
0.011249388 -0.10120735 -0.07494653 -0.006456743 0.061235625 -0.068937056 -0.08290764 -0.0880537

transformer_blocks.0.feedforward.2.weight f4 [64, 256]
00000000: 04ff 74bd 5e79 f73c a017 cf3c a515 15bd
00000010: a4bc 89bb f936 34bc 276c 073d 3f1c 223d
00000020: 93c8 3d3d 8c1f 19bd be2b 8f3c 5b7f 0fbc
00000030: c2a0 fa3c faad 4c3d 0c2d 87bc a32e 2ebd
00000040: aeea 2dbd c927 443d 6b77 1c3c 0ea6 173c
00000050: 1333 363c fc98 b83c ea04 91bd 9d4a bbbd
00000060: dd0a 1ebd 03cf b33c 4def 44bd b4e4 23bd
00000070: 8c18 04bd 225f a03d 8971 253d 6fff 75bd
00000080: 658b 48bc af3c 41bd 4833 3fbd 0f13 58bd
00000090: 15c6 e1bb 822a 27bd f82c 2a3c 76a9 2c3c
000000a0: caba 57b9 9b0f 743d 6c7c 863d f525 35bc
000000b0: 7ca3 9e3c 2a69 973d 21bc e1bc 5831 b23c
000000c0: cfb3 043d 132b 4ebd 9cd6 e43c 802d babc
000000d0: da96 19bd 805f f13c 580e 56bc d312 4b3c
000000e0: 04e2 c7bc fc1d 8b3c c700 8d3d cbea 653d
000000f0: 2705 2a3d c899 75bc a601 2e3d e2c3 d33a
00000100: b33b 663d 5056 e13c 0ff1 06bd 15c6 2d3c
00000110: 22ff 79bd 7019 29bd ad0e 363d 3e1a c03c
00000120: 1107 8dbd 4571 72bd 48bb b93c d316 33bd
00000130: fe31 793d 841d 263d 4da2 933c f3b4 4bbc
00000140: 3fef 27bd aaf2 dabb 8faf 253d b5a4 dc3a
00000150: 3719 133d 3e73 09bb f549 373a 4fc0 c1bc
00000160: 4eb2 3f3c 36b3 353d f64e fe3c 8120 c83c
00000170: 9c45 0ebd dcfd 483d 0a07 0d3c 48cb eb3c
00000180: 1030 873c 3e93 abbc 14ab 3e3c 2ad5 b63d
00000190: 2bb2 e23b a1d0 98bd 5f15 acbc a263 723d
000001a0: 188a 2abd d730 1a3d 4bf3 553d 94fe 7e3d
000001b0: df96 7c3d 655a b5bc f7ac 003d b71e 503c
000001c0: 32ec da3c c9d8 66bd a131 f53a 338d c7bc
000001d0: 3af0 a0bc 8802 78bc 8993 4fbd 4aac 00bc
000001e0: 31ab 9bbd f5d7 fb3a 758a 063d ba4f 803c
000001f0: 21ab 663d c925 da3c 04f1 04bd 454a 47bd
00000200: feff 76bd 9792 6e3d aa35 d93c 51ae e73c
00000210: c915 97bd e479 36bd 5e09 a83c a4e3 643d
00000220: 3789 c3ba 0136 a8bc 051d ebbc b2cf 493d
00000230: 04bc b33c 062a 443d c6e3 db3b 5750 56bd
00000240: 6377 a73c 2953 5cbd 632c 3b3d 3e30 b3bc
00000250: 54b5 883c 0b47 1c3b cce3 c4bb 8827 f7bc
00000260: 9309 7fbc 391d 5abd 564d 66bb e503 00bd
00000270: 0678 893d 1d2e 0f3d c8cb e5bb 77ce 3a3d
00000280: ce35 863c 3571 a63d 3389 57bd 12bc 353d
00000290: 5de1 a93d f26a 2fbd 2c4d 3dbb 48b9 0fbd
000002a0: 3c06 0fbb 296c 703d 8d14 90bd 3e87 edbc
000002b0: 38ad 2c3d 8981 6d3d d70a 543d 212e 49bc
000002c0: c7d2 203d 8cef 673d 9798 2dbc fd07 0e3d
000002d0: 40ae bbbc 0c65 86bc 49f1 93bd 914e 5f3d
000002e0: bc1d 233d 7e37 363b f9d0 65bd d0d0 2f3d
000002f0: 9021 293c b86a 003d cac4 7abd ff2d bdbb
00000300: 6522 2d3d 8308 fe3c d4b4 013d 61e4 243d
00000310: c102 6bbd 9235 6c3d f15b 54bd 1cd7 073d
00000320: b838 863d c12a 033d 6988 483d 86eb 75bd
00000330: fa11 faba 4470 dabc 7363 b63c f78d 523d
00000340: ecaa 893c 99ee 663d a6b3 1a3d 6350 523d
00000350: aa06 963c fb7a 063d 7e3b bdbc de38 ed3c
00000360: 0b1c 783c 5093 9d3d bf3d dc3c 28f1 fa3c
00000370: db75 80bd ea08 4ebd 7d65 dfbb 6ce3 5abd
00000380: a93a 6ebd e9e0 8abc cddb 053d 122f f83a
00000390: 5e7e 533d c0fc 923d 64b1 09bd 9c26 533d
000003a0: 2464 113d f7cd 3abd b659 f5bc eb75 163c
000003b0: d5da 9a3c 2ea0 ac3d df31 183d 74b3 adbd
000003c0: 1bc3 ba3c 9851 d43d 3506 393d ecc2 6f3d
000003d0: c002 793d 6314 d0bc 2a49 ff3c 3e01 25bd
000003e0: 449b 1ebd 2d00 5cbd c82a 943c 2d5e 563c
000003f0: 1c5a 2dbd 3f36 903d d7f5 38bd 9440 e23b
-0.059813514 0.03020924 0.02527982 -0.036397595 -0.004203396 -0.010999435 0.033062126 0.03957772
0.04633386 -0.0373836 0.017476913 -0.008758391 0.030594233 0.049970604 -0.016500972 -0.042524945
-0.042460136 0.047889505 0.009549956 0.009255899 0.0111205755 0.022533886 -0.070810154 -0.09145091
-0.03858458 0.021949297 -0.048079778 -0.04001303 -0.032249972 0.07830645 0.04039148 -0.060058054
-0.0122402655 -0.047177013 -0.046679765 -0.05275255 -0.0068900683 -0.040812023 0.010386698 0.0105384495
-0.00020573582 0.059585195 0.065667 -0.011056413 0.019365065 0.07393105 -0.027555527 0.021752045
0.03239804 -0.050334048 0.027934365 -0.022726774 -0.03749738 0.029464483 -0.013064943 0.012394625
-0.024399765 0.016982071 0.06884914 0.05613212 0.04150882 -0.014990278 0.04248204 0.00161564
0.056209277 0.027506977 -0.032944735 0.0106063085 -0.06103433 -0.041284025 0.04444759 0.023450013
-0.068861134 -0.059190053 0.02267231 -0.04372294 0.060838692 0.040555492 0.018021727 -0.012433278
-0.040999647 -0.00668176 0.04045063 0.0016833754 0.03591272 -0.002097323 0.00069919165 -0.02365127
0.011700226 0.044360362 0.03104351 0.024429562 -0.034734353 0.049070224 0.008607635 0.028783455
0.01650241 -0.020944234 0.011637468 0.089273766 0.006918212 -0.07461668 -0.021006284 0.05917705
-0.041635603 0.037644234 0.052233975 0.062254503 0.06166732 -0.02213783 0.031414952 0.0127026355
0.026723955 -0.056359086 0.0018706807 -0.024359321 -0.019645799 -0.015137322 -0.05067781 -0.007853577
-0.076010115 0.001921414 0.032846887 0.015663017 0.056315545 0.026629345 -0.032456413 -0.048654813
-0.060302727 0.058245268 0.026514847 0.028281363 -0.07377202 -0.044549838 0.02051228 0.055881158
-0.0014918213 -0.020533564 -0.028700361 0.04927034 0.021940239 0.04789164 0.0067105023 -0.05232271
0.02044267 -0.053790245 0.045696627 -0.02187359 0.016688026 0.0023846056 -0.006008601 -0.030170217
-0.0155662475 -0.053250525 -0.003514131 -0.031253714 0.06712346 0.034956086 -0.007012818 0.045607056
0.016383078 0.08127061 -0.052621078 0.04436881 0.08294938 -0.0428266 -0.002888511 -0.035088807
-0.0021823784 0.0586969 -0.0703517 -0.028995153 0.04215738 0.057984862 0.05176815 -0.012279064
0.039263513 0.056624934 -0.010595462 0.034675587 -0.022910237 -0.016405605 -0.07223756 0.054518286
0.03982328 0.0027804072 -0.056107495 0.04292375 0.010322943 0.031351775 -0.06122283 -0.0057733054
0.04226913 0.031009918 0.03166659 0.04025686 -0.057375673 0.057668276 -0.051845495 0.03316413
0.06553787 0.032023195 0.048958216 -0.060039066 -0.0019078844 -0.02666486 0.022264218 0.05140492
0.016805135 0.05637989 0.037768982 0.051346194 0.018313725 0.032832127 -0.023099657 0.02895778
0.015143405 0.07694113 0.026884912 0.03063257 -0.06272479 -0.05030147 -0.0068175183 -0.053439543
-0.05816141 -0.016952949 0.03268032 0.0018934926 0.051634185 0.071771145 -0.03361644 0.051550493
0.035495892 -0.04560658 -0.029950004 0.009183387 0.018903175 0.08428989 0.037156936 -0.084814936
0.022798112 0.10367125 0.045171935 0.0585355 0.06079364 -0.025400346 0.031162817 -0.040284388
-0.03872229 -0.053711105 0.018086806 0.013083977 -0.042322263 0.070415966 -0.045156326 0.006904671

transformer_blocks.0.feedforward.2.bias f4 [64]
00000000: 77f3 7f3d 1e09 debc 2742 633c d605 c33c
00000010: 0b73 243d 9d88 96bd cb4a b73c 7295 43bb
00000020: 7cf1 dd3c 400e 2cbd 1175 753b 99d5 913b
00000030: 5748 a3bc c281 bf3d d4d0 7c3d 9f92 973d
00000040: 01d4 2f3d a6a4 cd3c 80cc 123d cfab c6bc
00000050: 3545 1abd 3fb4 30bc 016e a03d e384 b13c
00000060: cfd3 263d e5ec 37bd 209f 3abd 60f5 0c3c
00000070: 95dc a8bb 718a 43bd c7cf c639 15a3 adbc
00000080: f04c 893d 645e 203c 04ca a23c cac1 fa3c
00000090: e7f0 bf3c 2d9f 413c 4766 e2bc 8af1 acbb
000000a0: da69 8d3d f845 373d ba3d a13c 2217 973c
000000b0: aa1b d2bc 7c29 2dbd fc04 6cbd 0ffc 58bd
000000c0: 59a8 cf3c 764d 743c 6999 973b 712e 253d
000000d0: 3ad1 1d3d 1f4e b6bc 0f02 89bd a958 4f3c
000000e0: 2b07 413c 7175 3abc b917 3dbd aad1 c7bc
000000f0: 14b6 2ebd ad54 24bd a55d e73b 31fd e7bc
0.062488046 -0.027103957 0.013870752 0.023806494 0.040148776 -0.07350276 0.022374531 -0.0029843715
0.027092688 -0.042005777 0.003745381 0.0044505117 -0.019931955 0.09350921 0.06172259 0.07401013
0.042926792 0.025102925 0.035839558 -0.024251847 -0.037663657 -0.0107851615 0.078334816 0.02166981
0.04072934 -0.044903655 -0.04556191 0.008603424 -0.0051532486 -0.04773945 0.0003792031 -0.021195928
0.06704128 0.0097881295 0.01987172 0.030609984 0.0234303 0.011817736 -0.02763666 -0.005277817
0.06904955 0.04474446 0.019682754 0.018443648 -0.025647957 -0.04227589 -0.05762194 -0.052974757
0.02534883 0.014911046 0.004626442 0.040327493 0.038529612 -0.022254048 -0.06689846 0.012655416
0.011781494 -0.011380539 -0.0461652 -0.024391968 -0.042654112 -0.040119816 0.007060724 -0.028318973

transformer_blocks.0.layernorm1.weight f4 [64]
00000000: 9775 833f 0a8e 853f b401 753f 95ac 723f
00000010: b9c9 763f 46ef 6a3f 3f48 763f ef3e 843f
00000020: 016e 753f 0849 763f 3a97 7e3f 478e 7e3f
00000030: 0070 753f 2b44 713f 1eb7 7e3f 1411 753f
00000040: 8301 803f 78e4 7a3f 343a 7f3f 7ca8 873f
00000050: f039 803f 47b0 873f a65c 863f 1896 7b3f
00000060: 98c4 813f 4652 853f 68f7 7e3f 1103 713f
00000070: 1771 853f 12cc 833f 0130 843f bb46 7d3f
00000080: 1697 773f eb99 733f fcef 793f 7dda 843f
00000090: 4232 8c3f ce35 893f 3e08 763f 5a0a 813f
000000a0: f94b 833f e052 773f 5a71 763f 4831 763f
000000b0: bb00 783f b9c2 723f 5d21 7c3f 0739 763f
000000c0: 142b 7b3f 6c2d 833f 4ba2 723f c27d 793f
000000d0: a12b 883f 6c09 7f3f a15c 713f 2fd7 733f
000000e0: c409 703f e76a 7b3f 7fff 713f bd91 7c3f
000000f0: 9e3b 803f 5d4e 7b3f f03b 7d3f 2df8 763f
1.027026 1.0433972 0.95705724 0.9479459 0.96401554 0.9177135 0.9620399 1.0331706
0.9587098 0.96205187 0.99449503 0.9943585 0.95874023 0.9424464 0.99498165 0.95729184
1.0000461 0.98004866 0.99698186 1.0598292 1.0017681 1.060067 1.0497024 0.982759
1.0138121 1.0415733 0.9959626 0.94145304 1.0425137 1.0296652 1.032715 0.9893605
0.96714914 0.95156735 0.9763181 1.0379177 1.0952837 1.0719545 0.96106327 1.0081284
1.025756 0.9661083 0.9626671 0.9616895 0.96876115 0.94828373 0.9848841 0.96180767
0.98112607 1.0248237 0.9477889 0.97457516 1.0638314 0.9962375 0.94281965 0.9525022
0.937649 0.98209995 0.9453048 0.9865988 1.0018194 0.9816645 0.9891958 0.96472436

transformer_blocks.0.layernorm1.bias f4 [64]
00000000: 2df9 e93a 397f 1dbb 3790 e3bc 4998 963b
00000010: 8b3b 1bbc f0fd e2bc e9f1 28bb da97 5a3a
00000020: 803c 2cbc 2b77 6c3b aef7 6abb 1a77 8a3c
00000030: 419e 8bbb c98c 203d 0fb9 b4bb 8290 9c3c
00000040: 8e17 d0bb 0b19 623c b791 e73b 125b 57bc
00000050: c94e 43bc e880 503c 2319 da3b b3f3 92bc
00000060: 3888 b4bb 03c3 ebb9 1b7d 7cbb 8326 e5bc
00000070: e90f 453c f617 113c 94c8 6a3c f233 573a
00000080: 26a1 8cba e960 063d 5243 a7bc 4157 81bc
00000090: 196b eb3b 0ba7 873c 5e56 85bc 33da f83a
000000a0: a7e7 363b 192e b0bc 1175 43bc 72e0 b5bc
000000b0: ccf4 debb e343 263c 6c2e 8c3c 31e5 53bc
000000c0: 9196 02bc e021 2fbc 602e d4bc d891 15bc
000000d0: 02dc 073b 335a 7f3b ea6f 00bd ec27 0f3c
000000e0: 99e3 78bc 0622 62bc 8cd8 0ebc 2892 3c3c
000000f0: 6654 22bc 7a23 833c d97f df3b 0e83 a93b
0.001785075 -0.002403213 -0.027778728 0.0045957905 -0.009474645 -0.027708977 -0.0025778955 0.00083386677
-0.010512471 0.0036081772 -0.0035853195 0.016902495 -0.0042608087 0.039196763 -0.0055152248 0.019111875
-0.006350464 0.013799916 0.007066931 -0.013144271 -0.011920639 0.012726046 0.0066558286 -0.01793847
-0.0055094026 -0.00044967988 -0.0038526717 -0.027972465 0.012027719 0.00885581 0.014330048 0.00082093396
-0.0010729178 0.032807264 -0.020417843 -0.015788676 0.007184398 0.016559144 -0.016276535 0.0018985927
0.0027909072 -0.021506356 -0.011929766 -0.02220175 -0.0068040844 0.010148021 0.01711198 -0.012933061
-0.007970468 -0.010689229 -0.02590102 -0.00912901 0.00207305 0.0038963675 -0.03135673 0.008737545
-0.015190982 -0.013802057 -0.008718621 0.011509456 -0.0099078175 0.016008127 0.0068206606 0.0051730936

transformer_blocks.0.layernorm2.weight f4 [64]
00000000: fb99 7d3f db56 7d3f 5eb1 543f dd9f 723f
00000010: e186 753f 86e1 6c3f 2e9b 713f 7c9e 7b3f
00000020: 8e4a 7e3f 777e 773f 9db2 743f 0622 7b3f
00000030: a9e5 563f c1f6 623f 014f 783f be3c 6f3f
00000040: 1bc6 7a3f a329 7b3f 2e12 753f 08c5 803f
00000050: 9646 723f ba95 7f3f f462 813f 8d77 793f
00000060: 6d88 763f 452e 803f 163f 6e3f 576e 6d3f
00000070: 2293 7b3f f64a 7d3f c975 7a3f ce32 7c3f
00000080: 7dc5 753f 8929 733f 185e 753f c8a8 7f3f
00000090: c2f3 813f 7308 823f a244 753f 5a85 7d3f
000000a0: da01 7e3f f42b 783f b7ed 7a3f a924 783f
000000b0: 681d 683f 37e9 723f 1bd8 733f 8bd2 683f
000000c0: 28be 723f 756a 7f3f c59a 673f ee94 613f
000000d0: 5483 803f 8048 7c3f a7ea 663f bf4a 6f3f
000000e0: 5344 613f 423d 703f 3d75 6b3f f335 783f
000000f0: 2e3c 793f 2530 723f b461 753f 83c0 573f
0.9906308 0.98960656 0.8308314 0.9477518 0.95908934 0.9253162 0.9437741 0.982887
0.9933251 0.96677345 0.9558504 0.9809879 0.83944184 0.88657767 0.9699555 0.9345206
0.97958535 0.9811041 0.95730865 1.0060129 0.94638956 0.9983784 1.0108323 0.97448045
0.9630192 1.001412 0.9306501 0.9274649 0.9827138 0.98942506 0.97835976 0.9851502
0.9600447 0.9498525 0.958467 0.99866915 1.0152514 1.0158828 0.9580785 0.99031603
0.99221575 0.9694207 0.98018974 0.9693094 0.9066987 0.9488711 0.95251626 0.90946263
0.94821405 0.99771816 0.90470535 0.88117874 1.0040078 0.98548126 0.902018 0.9347343
0.8799488 0.9384347 0.91975766 0.9695732 0.9735745 0.9460471 0.9585221 0.84278125

transformer_blocks.0.layernorm2.bias f4 [64]
00000000: 06d2 233a 2960 2dbb 585d 44bd c43b b3bc
00000010: c240 7fbc 9f21 debc 3365 263c 9bb4 ebba
00000020: 5a8e 2ebc 1a58 303b a3e6 fcbb a6ef 3a3c
00000030: 668b 3abc 30bb 173d 2ec2 0a3c 22fc 8e3b
00000040: ad31 0cbc df88 0a3b 11b5 353c 8b1e ebb9
00000050: 34f3 17bc 3bbe bf3b 8ff9 b53b abb2 eebc
00000060: 34bd 20bc 4072 1e3b 222e 533c 85ea fcbc
00000070: d57f 133b 4005 583b b6cb ed3b 2571 7fbc
00000080: 797c 2039 c7d4 033d 3ba2 5d3a a5dc 74bc
00000090: 0602 36b9 09c3 a43b a972 bcbc ee9d 343c
000000a0: b794 8c3b 6293 79bb 23e4 1e3c 63b8 b5bc
000000b0: 253c b53a 5d5d 243b 0b6c 523b 788e 60bc
000000c0: a260 90bc 7d8d 5a3a a31c c2bc 5187 2abc
000000d0: 3406 8bbb 6d51 10ba 6835 91bc 280a d53c
000000e0: d41a 213c 29d8 02bd 4d17 fcba 71ee 263c
000000f0: 7555 b5ba cf5f 973a 3d02 863b b864 0ebc
0.00062492525 -0.002645502 -0.047940582 -0.021879084 -0.015579404 -0.027115641 0.010155964 -0.0017982902
-0.010654056 0.0026907981 -0.0077179237 0.011409676 -0.011385774 0.03704375 0.008469148 0.0043635527
-0.0085567655 0.002113871 0.011090533 -0.0004484545 -0.009274293 0.0058515347 0.0055534313 -0.02913793
-0.009810735 0.0024176985 0.012889417 -0.030873546 0.0022506614 0.0032962114 0.0072569503 -0.015590941
0.00015305159 0.032185342 0.0008454655 -0.014945184 -0.00017357626 0.005028133 -0.023003893 0.0110239815
0.004290189 -0.0038082232 0.009697947 -0.022182649 0.0013827129 0.0025080063 0.0032107856 -0.013705842
-0.017624203 0.00083371234 -0.023695296 -0.0104082385 -0.004242683 -0.00055052974 -0.017725661 0.02600582
0.0098330565 -0.031944428 -0.0019233018 0.010188685 -0.0013834672 0.0011548939 0.0040896223 -0.008691005
